nohup: ignoring input
Running experiment 2CH_preproc1_150x150_bySlices_dataset_allViews_Diastole_VGG19_Adam-0.001_MAE_DA3
Going to train with the GPU in the slot 0 -> device model: GeForce RTX 2080
Model architecture:
 VGG19(
  (first_conv): Sequential(
    (0): Conv2d(30, 64, kernel_size=(3, 3), stride=(1, 1), padding=(1, 1))
    (1): ReLU()
    (2): BatchNorm2d(64, eps=1e-05, momentum=0.1, affine=True, track_running_stats=True)
  )
  (pretrained_block): Sequential(
    (0): Conv2d(64, 64, kernel_size=(3, 3), stride=(1, 1), padding=(1, 1))
    (1): ReLU(inplace=True)
    (2): MaxPool2d(kernel_size=2, stride=2, padding=0, dilation=1, ceil_mode=False)
    (3): Conv2d(64, 128, kernel_size=(3, 3), stride=(1, 1), padding=(1, 1))
    (4): ReLU(inplace=True)
    (5): Conv2d(128, 128, kernel_size=(3, 3), stride=(1, 1), padding=(1, 1))
    (6): ReLU(inplace=True)
    (7): MaxPool2d(kernel_size=2, stride=2, padding=0, dilation=1, ceil_mode=False)
    (8): Conv2d(128, 256, kernel_size=(3, 3), stride=(1, 1), padding=(1, 1))
    (9): ReLU(inplace=True)
    (10): Conv2d(256, 256, kernel_size=(3, 3), stride=(1, 1), padding=(1, 1))
    (11): ReLU(inplace=True)
    (12): Conv2d(256, 256, kernel_size=(3, 3), stride=(1, 1), padding=(1, 1))
    (13): ReLU(inplace=True)
    (14): Conv2d(256, 256, kernel_size=(3, 3), stride=(1, 1), padding=(1, 1))
    (15): ReLU(inplace=True)
    (16): MaxPool2d(kernel_size=2, stride=2, padding=0, dilation=1, ceil_mode=False)
    (17): Conv2d(256, 512, kernel_size=(3, 3), stride=(1, 1), padding=(1, 1))
    (18): ReLU(inplace=True)
    (19): Conv2d(512, 512, kernel_size=(3, 3), stride=(1, 1), padding=(1, 1))
    (20): ReLU(inplace=True)
    (21): Conv2d(512, 512, kernel_size=(3, 3), stride=(1, 1), padding=(1, 1))
    (22): ReLU(inplace=True)
    (23): Conv2d(512, 512, kernel_size=(3, 3), stride=(1, 1), padding=(1, 1))
    (24): ReLU(inplace=True)
    (25): MaxPool2d(kernel_size=2, stride=2, padding=0, dilation=1, ceil_mode=False)
    (26): Conv2d(512, 512, kernel_size=(3, 3), stride=(1, 1), padding=(1, 1))
    (27): ReLU(inplace=True)
    (28): Conv2d(512, 512, kernel_size=(3, 3), stride=(1, 1), padding=(1, 1))
    (29): ReLU(inplace=True)
    (30): Conv2d(512, 512, kernel_size=(3, 3), stride=(1, 1), padding=(1, 1))
    (31): ReLU(inplace=True)
    (32): Conv2d(512, 512, kernel_size=(3, 3), stride=(1, 1), padding=(1, 1))
    (33): ReLU(inplace=True)
    (34): MaxPool2d(kernel_size=2, stride=2, padding=0, dilation=1, ceil_mode=False)
  )
  (reduction_block): Sequential(
    (0): AdaptiveAvgPool2d(output_size=(1, 1))
    (1): Flatten()
  )
  (dense_block): Sequential(
    (0): Linear(in_features=512, out_features=512, bias=True)
    (1): ReLU()
    (2): Dropout(p=0.4, inplace=False)
    (3): Linear(in_features=512, out_features=1, bias=True)
  )
) 


############################
# TRAIN PHASE:  150 epochs #
############################

Epoch 0: 
Train batch 1/7 - 311.1ms/batch - loss: 1.98069 - diff: 158.46mlTrain batch 2/7 - 276.1ms/batch - loss: 2.01504 - diff: 161.20mlTrain batch 3/7 - 299.9ms/batch - loss: 1.97475 - diff: 157.98mlTrain batch 4/7 - 275.8ms/batch - loss: 2.02057 - diff: 161.65mlTrain batch 5/7 - 300.9ms/batch - loss: 2.02883 - diff: 162.31mlTrain batch 6/7 - 277.3ms/batch - loss: 2.04140 - diff: 163.31mlTrain batch 7/7 - 86.7ms/batch - loss: 2.28251 - diff: 163.23mlTrain batch 7/7 - 15.9s 86.7ms/batch - loss: 2.28251 - diff: 163.23ml
…
