…
/usr/local/cudnn/cuda10.1/dnn7.6.5/lib64/:/usr/local/cuda-10.0/lib64/:/usr/local/cudnn/cuda10/dnn7.6.5/lib64/
2020-09-02 10:49:50.745710: W tensorflow/compiler/tf2tensorrt/utils/py_utils.cc:30] Cannot dlopen some TensorRT libraries. If you would like to use Nvidia GPU with TensorRT, please make sure the missing libraries mentioned above are installed properly.
Running experiment 4CH_preproc1_150x150_bySlices_dataset_allViews_Systole_VGG19_Adam-0.001_MAE_DA3
Going to train with the GPU in the slot 0 -> device model: GeForce GTX 1080
Model architecture:
 VGG19(
  (first_conv): Sequential(
    (0): Conv2d(30, 64, kernel_size=(3, 3), stride=(1, 1), padding=(1, 1))
    (1): ReLU()
    (2): BatchNorm2d(64, eps=1e-05, momentum=0.1, affine=True, track_running_stats=True)
  )
  (pretrained_block): Sequential(
    (0): Conv2d(64, 64, kernel_size=(3, 3), stride=(1, 1), padding=(1, 1))
    (1): ReLU(inplace=True)
    (2): MaxPool2d(kernel_size=2, stride=2, padding=0, dilation=1, ceil_mode=False)
    (3): Conv2d(64, 128, kernel_size=(3, 3), stride=(1, 1), padding=(1, 1))
    (4): ReLU(inplace=True)
    (5): Conv2d(128, 128, kernel_size=(3, 3), stride=(1, 1), padding=(1, 1))
    (6): ReLU(inplace=True)
    (7): MaxPool2d(kernel_size=2, stride=2, padding=0, dilation=1, ceil_mode=False)
    (8): Conv2d(128, 256, kernel_size=(3, 3), stride=(1, 1), padding=(1, 1))
    (9): ReLU(inplace=True)
    (10): Conv2d(256, 256, kernel_size=(3, 3), stride=(1, 1), padding=(1, 1))
    (11): ReLU(inplace=True)
    (12): Conv2d(256, 256, kernel_size=(3, 3), stride=(1, 1), padding=(1, 1))
    (13): ReLU(inplace=True)
    (14): Conv2d(256, 256, kernel_size=(3, 3), stride=(1, 1), padding=(1, 1))
    (15): ReLU(inplace=True)
    (16): MaxPool2d(kernel_size=2, stride=2, padding=0, dilation=1, ceil_mode=False)
    (17): Conv2d(256, 512, kernel_size=(3, 3), stride=(1, 1), padding=(1, 1))
    (18): ReLU(inplace=True)
    (19): Conv2d(512, 512, kernel_size=(3, 3), stride=(1, 1), padding=(1, 1))
    (20): ReLU(inplace=True)
    (21): Conv2d(512, 512, kernel_size=(3, 3), stride=(1, 1), padding=(1, 1))
    (22): ReLU(inplace=True)
    (23): Conv2d(512, 512, kernel_size=(3, 3), stride=(1, 1), padding=(1, 1))
    (24): ReLU(inplace=True)
    (25): MaxPool2d(kernel_size=2, stride=2, padding=0, dilation=1, ceil_mode=False)
    (26): Conv2d(512, 512, kernel_size=(3, 3), stride=(1, 1), padding=(1, 1))
    (27): ReLU(inplace=True)
    (28): Conv2d(512, 512, kernel_size=(3, 3), stride=(1, 1), padding=(1, 1))
    (29): ReLU(inplace=True)
    (30): Conv2d(512, 512, kernel_size=(3, 3), stride=(1, 1), padding=(1, 1))
    (31): ReLU(inplace=True)
    (32): Conv2d(512, 512, kernel_size=(3, 3), stride=(1, 1), padding=(1, 1))
    (33): ReLU(inplace=True)
    (34): MaxPool2d(kernel_size=2, stride=2, padding=0, dilation=1, ceil_mode=False)
  )
  (reduction_block): Sequential(
    (0): AdaptiveAvgPool2d(output_size=(1, 1))
    (1): Flatten()
  )
  (dense_block): Sequential(
    (0): Linear(in_features=512, out_features=512, bias=True)
    (1): ReLU()
    (2): Dropout(p=0.4, inplace=False)
    (3): Linear(in_features=512, out_features=1, bias=True)
  )
) 


############################
# TRAIN PHASE:  150 epochs #
############################

Epoch 0: 
Train batch 1/7 - 990.7ms/batch - loss: 0.88834 - diff: 71.07mlTrain batch 2/7 - 460.2ms/batch - loss: 0.90841 - diff: 72.67mlTrain batch 3/7 - 461.4ms/batch - loss: 0.90280 - diff: 72.22mlTrain batch 4/7 - 460.6ms/batch - loss: 0.89553 - diff: 71.64mlTrain batch 5/7 - 460.2ms/batch - loss: 0.87502 - diff: 70.00mlTrain batch 6/7 - 463.1ms/batch - loss: 0.86384 - diff: 69.11mlTrain batch 7/7 - 48.4ms/batch - loss: 0.94089 - diff: 68.74mlTrain batch 7/7 - 21.0s 48.4ms/batch - loss: 0.94089 - diff: 68.74ml
…
