…
6MB/s] 99%|█████████▉| 542M/548M [00:51<00:00, 10.8MB/s] 99%|█████████▉| 543M/548M [00:51<00:00, 11.0MB/s] 99%|█████████▉| 544M/548M [00:51<00:00, 11.1MB/s] 99%|█████████▉| 545M/548M [00:51<00:00, 11.2MB/s]100%|█████████▉| 546M/548M [00:52<00:00, 11.3MB/s]100%|█████████▉| 547M/548M [00:52<00:00, 11.3MB/s]100%|██████████| 548M/548M [00:52<00:00, 11.0MB/s]Running experiment SAX_preproc0_150x150_bySlices_dataset_allViews_Systole_VGG19_Adam-0.001_MSE_DA3
Going to train with the GPU in the slot 1 -> device model: GeForce RTX 2080
Model architecture:
 VGG19(
  (first_conv): Sequential(
    (0): Conv2d(30, 64, kernel_size=(3, 3), stride=(1, 1), padding=(1, 1))
    (1): ReLU()
    (2): BatchNorm2d(64, eps=1e-05, momentum=0.1, affine=True, track_running_stats=True)
  )
  (pretrained_block): Sequential(
    (0): Conv2d(64, 64, kernel_size=(3, 3), stride=(1, 1), padding=(1, 1))
    (1): ReLU(inplace=True)
    (2): MaxPool2d(kernel_size=2, stride=2, padding=0, dilation=1, ceil_mode=False)
    (3): Conv2d(64, 128, kernel_size=(3, 3), stride=(1, 1), padding=(1, 1))
    (4): ReLU(inplace=True)
    (5): Conv2d(128, 128, kernel_size=(3, 3), stride=(1, 1), padding=(1, 1))
    (6): ReLU(inplace=True)
    (7): MaxPool2d(kernel_size=2, stride=2, padding=0, dilation=1, ceil_mode=False)
    (8): Conv2d(128, 256, kernel_size=(3, 3), stride=(1, 1), padding=(1, 1))
    (9): ReLU(inplace=True)
    (10): Conv2d(256, 256, kernel_size=(3, 3), stride=(1, 1), padding=(1, 1))
    (11): ReLU(inplace=True)
    (12): Conv2d(256, 256, kernel_size=(3, 3), stride=(1, 1), padding=(1, 1))
    (13): ReLU(inplace=True)
    (14): Conv2d(256, 256, kernel_size=(3, 3), stride=(1, 1), padding=(1, 1))
    (15): ReLU(inplace=True)
    (16): MaxPool2d(kernel_size=2, stride=2, padding=0, dilation=1, ceil_mode=False)
    (17): Conv2d(256, 512, kernel_size=(3, 3), stride=(1, 1), padding=(1, 1))
    (18): ReLU(inplace=True)
    (19): Conv2d(512, 512, kernel_size=(3, 3), stride=(1, 1), padding=(1, 1))
    (20): ReLU(inplace=True)
    (21): Conv2d(512, 512, kernel_size=(3, 3), stride=(1, 1), padding=(1, 1))
    (22): ReLU(inplace=True)
    (23): Conv2d(512, 512, kernel_size=(3, 3), stride=(1, 1), padding=(1, 1))
    (24): ReLU(inplace=True)
    (25): MaxPool2d(kernel_size=2, stride=2, padding=0, dilation=1, ceil_mode=False)
    (26): Conv2d(512, 512, kernel_size=(3, 3), stride=(1, 1), padding=(1, 1))
    (27): ReLU(inplace=True)
    (28): Conv2d(512, 512, kernel_size=(3, 3), stride=(1, 1), padding=(1, 1))
    (29): ReLU(inplace=True)
    (30): Conv2d(512, 512, kernel_size=(3, 3), stride=(1, 1), padding=(1, 1))
    (31): ReLU(inplace=True)
    (32): Conv2d(512, 512, kernel_size=(3, 3), stride=(1, 1), padding=(1, 1))
    (33): ReLU(inplace=True)
    (34): MaxPool2d(kernel_size=2, stride=2, padding=0, dilation=1, ceil_mode=False)
  )
  (reduction_block): Sequential(
    (0): AdaptiveAvgPool2d(output_size=(1, 1))
    (1): Flatten()
  )
  (dense_block): Sequential(
    (0): Linear(in_features=512, out_features=512, bias=True)
    (1): ReLU()
    (2): Dropout(p=0.4, inplace=False)
    (3): Linear(in_features=512, out_features=1, bias=True)
  )
) 


############################
# TRAIN PHASE:  100 epochs #
############################

Epoch 0: 

Train batch 1/84 - 272.3ms/batch - loss: 93.68010 - diff: 69.20mlTrain batch 2/84 - 231.1ms/batch - loss: 125.04638 - diff: 72.81mlTrain batch 3/84 - 206.3ms/batch - loss: 130.49249 - diff: 74.53mlTrain batch 4/84 - 206.7ms/batch - loss: 121.05
…
