nohup: ignoring input
Running experiment SAX_preproc1_150x150_bySlices_dataset_allViews_Systole_TimeAsDepth_1_Adam-0.001_MAE_DA3
Going to train with the GPU in the slot 0 -> device model: GeForce RTX 2080
Model architecture:
 TimeAsDepth_1(
  (conv_block): Sequential(
    (0): Conv2d(30, 64, kernel_size=(3, 3), stride=(2, 2))
    (1): BatchNorm2d(64, eps=1e-05, momentum=0.1, affine=True, track_running_stats=True)
    (2): ReLU()
    (3): Conv2d(64, 64, kernel_size=(3, 3), stride=(1, 1))
    (4): BatchNorm2d(64, eps=1e-05, momentum=0.1, affine=True, track_running_stats=True)
    (5): ReLU()
    (6): MaxPool2d(kernel_size=2, stride=2, padding=0, dilation=1, ceil_mode=False)
    (7): Dropout(p=0.4, inplace=False)
    (8): Conv2d(64, 128, kernel_size=(3, 3), stride=(1, 1))
    (9): BatchNorm2d(128, eps=1e-05, momentum=0.1, affine=True, track_running_stats=True)
    (10): ReLU()
    (11): Conv2d(128, 128, kernel_size=(3, 3), stride=(1, 1))
    (12): BatchNorm2d(128, eps=1e-05, momentum=0.1, affine=True, track_running_stats=True)
    (13): ReLU()
    (14): MaxPool2d(kernel_size=2, stride=2, padding=0, dilation=1, ceil_mode=False)
    (15): Dropout(p=0.4, inplace=False)
    (16): Conv2d(128, 256, kernel_size=(3, 3), stride=(1, 1))
    (17): BatchNorm2d(256, eps=1e-05, momentum=0.1, affine=True, track_running_stats=True)
    (18): ReLU()
    (19): Conv2d(256, 256, kernel_size=(3, 3), stride=(1, 1))
    (20): BatchNorm2d(256, eps=1e-05, momentum=0.1, affine=True, track_running_stats=True)
    (21): ReLU()
    (22): Dropout(p=0.4, inplace=False)
    (23): AdaptiveAvgPool2d(output_size=(1, 1))
  )
  (flatten): Flatten()
  (dense_block): Sequential(
    (0): Linear(in_features=256, out_features=1024, bias=True)
    (1): ReLU()
    (2): Dropout(p=0.4, inplace=False)
    (3): Linear(in_features=1024, out_features=1, bias=True)
  )
) 


############################
# TRAIN PHASE:  100 epochs #
############################

Epoch 0: 
Train batch 1/84 - 227.6ms/batch - loss: 1.13181 - diff: 72.44mlTrain batch 2/84 - 80.2ms/batch - loss: 1.11786 - diff: 71.54mlTrain batch 3/84 - 105.2ms/batch - loss: 1.17570 - diff: 75.24mlTrain batch 4/84 - 79.5ms/batch - loss: 1.16977 - dif
…
