nohup: ignoring input
Running experiment preproc1_150x150_bySlices_dataset_full_Systole_TimeAsDepth_3_Adam-0.001_DA
Going to train with the GPU in the slot 1 -> device model: GeForce GTX 1080
Model architecture:
 TimeAsDepth_3(
  (conv_block): Sequential(
    (0): Conv2d(30, 64, kernel_size=(3, 3), stride=(1, 1))
    (1): BatchNorm2d(64, eps=1e-05, momentum=0.1, affine=True, track_running_stats=True)
    (2): ReLU()
    (3): Conv2d(64, 64, kernel_size=(3, 3), stride=(1, 1))
    (4): BatchNorm2d(64, eps=1e-05, momentum=0.1, affine=True, track_running_stats=True)
    (5): ReLU()
    (6): MaxPool2d(kernel_size=2, stride=2, padding=0, dilation=1, ceil_mode=False)
    (7): Dropout(p=0.4, inplace=False)
    (8): Conv2d(64, 128, kernel_size=(3, 3), stride=(1, 1))
    (9): BatchNorm2d(128, eps=1e-05, momentum=0.1, affine=True, track_running_stats=True)
    (10): ReLU()
    (11): Conv2d(128, 128, kernel_size=(3, 3), stride=(1, 1))
    (12): BatchNorm2d(128, eps=1e-05, momentum=0.1, affine=True, track_running_stats=True)
    (13): ReLU()
    (14): MaxPool2d(kernel_size=2, stride=2, padding=0, dilation=1, ceil_mode=False)
    (15): Dropout(p=0.4, inplace=False)
    (16): Conv2d(128, 256, kernel_size=(3, 3), stride=(1, 1))
    (17): BatchNorm2d(256, eps=1e-05, momentum=0.1, affine=True, track_running_stats=True)
    (18): ReLU()
    (19): Conv2d(256, 256, kernel_size=(3, 3), stride=(1, 1))
    (20): BatchNorm2d(256, eps=1e-05, momentum=0.1, affine=True, track_running_stats=True)
    (21): ReLU()
    (22): MaxPool2d(kernel_size=2, stride=2, padding=0, dilation=1, ceil_mode=False)
    (23): Conv2d(256, 512, kernel_size=(3, 3), stride=(1, 1))
    (24): BatchNorm2d(512, eps=1e-05, momentum=0.1, affine=True, track_running_stats=True)
    (25): ReLU()
    (26): Conv2d(512, 512, kernel_size=(3, 3), stride=(1, 1))
    (27): BatchNorm2d(512, eps=1e-05, momentum=0.1, affine=True, track_running_stats=True)
    (28): ReLU()
    (29): Dropout(p=0.4, inplace=False)
    (30): AdaptiveAvgPool2d(output_size=(1, 1))
  )
  (flatten): Flatten()
  (dense_block): Sequential(
    (0): Linear(in_features=512, out_features=1024, bias=True)
    (1): ReLU()
    (2): Dropout(p=0.4, inplace=False)
    (3): Linear(in_features=1024, out_features=1, bias=True)
  )
) 


############################
# TRAIN PHASE:  100 epochs #
############################

Epoch 0: 
/home/allochi/tfm/workspace/lib/utils.py:12: SyntaxWarning: "is not" with a literal. Did you mean "!="?
  if parts[-1] is not '':  # To fix the case ending with '/'
/home/allochi/tfm/workspace/lib/utils.py:300: SyntaxWarning: "is not" with a literal. Did you mean "!="?
…
